…
/home/zhuhe/.conda/envs/diffhpe/lib/python3.9/site-packages/torchvision/models/_utils.py:223: UserWarning: Arguments other than a weight enum or `None` for 'weights' are deprecated since 0.13 and may be removed in the future. The current behavior is equivalent to passing `weights=ResNet50_Weights.IMAGENET1K_V1`. You can also use `weights=ResNet50_Weights.DEFAULT` to get the most up-to-date weights.
  warnings.warn(msg)
23-07-11 13:53:25.429 - INFO: Loading pretrained model for G [/home/zhuhe/HPE-with-Diffusion/experiments/sanitycheck_230711_005022/checkpoint/I90000_E19] ...
23-07-11 13:53:27.292 - INFO: Network G structure: GaussianDiffusion, with parameters: 719,051,762
23-07-11 13:53:27.292 - INFO: GaussianDiffusion(
  (regressor): Regressor(
    (preact): ResNet(
      (conv1): Conv2d(3, 64, kernel_size=(7, 7), stride=(2, 2), padding=(3, 3), bias=False)
      (bn1): BatchNorm2d(64, eps=1e-05, momentum=0.1, affine=True, track_running_stats=True)
      (relu): ReLU(inplace=True)
      (maxpool): MaxPool2d(kernel_size=3, stride=2, padding=1, dilation=1, ceil_mode=False)
      (layer1): Sequential(
        (0): Bottleneck(
          (conv1): Conv2d(64, 64, kernel_size=(1, 1), stride=(1, 1), bias=False)
          (bn1): BatchNorm2d(64, eps=1e-05, momentum=0.1, affine=True, track_running_stats=True)
          (conv2): Conv2d(64, 64, kernel_size=(3, 3), stride=(1, 1), padding=(1, 1), bias=False)
          (bn2): BatchNorm2d(64, eps=1e-05, momentum=0.1, affine=True, track_running_stats=True)
          (conv3): Conv2d(64, 256, kernel_size=(1, 1), stride=(1, 1), bias=False)
          (bn3): BatchNorm2d(256, eps=1e-05, momentum=0.1, affine=True, track_running_stats=True)
          (downsample): Sequential(
            (0): Conv2d(64, 256, kernel_size=(1, 1), stride=(1, 1), bias=False)
            (1): BatchNorm2d(256, eps=1e-05, momentum=0.1, affine=True, track_running_stats=True)
          )
        )
        (1): Bottleneck(
          (conv1): Conv2d(256, 64, kernel_size=(1, 1), stride=(1, 1), bias=False)
          (bn1): BatchNorm2d(64, eps=1e-05, momentum=0.1, affine=True, track_running_stats=True)
          (conv2): Conv2d(64, 64, kernel_size=(3, 3), stride=(1, 1), padding=(1, 1), bias=False)
          (bn2): BatchNorm2d(64, eps=1e-05, momentum=0.1, affine=True, track_running_stats=True)
          (conv3): Conv2d(64, 256, kernel_size=(1, 1), stride=(1, 1), bias=False)
          (bn3): BatchNorm2d(256, eps=1e-05, momentum=0.1, affine=True, track_running_stats=True)
        )
        (2): Bottleneck(
          (conv1): Conv2d(256, 64, kernel_size=(1, 1), stride=(1, 1), bias=False)
          (bn1): BatchNorm2d(64, eps=1e-05, momentum=0.1, affine=True, track_running_stats=True)
          (conv2): Conv2d(64, 64, kernel_size=(3, 3), stride=(1, 1), padding=(1, 1), bias=False)
          (bn2): BatchNorm2d(64, eps=1e-05, momentum=0.1, affine=True, track_running_stats=True)
          (conv3): Conv2d(64, 256, kernel_size=(1, 1), stride=(1, 1), bias=False)
          (bn3): BatchNorm2d(256, eps=1e-05, momentum=0.1, affine=True, track_running_stats=True)
        )
      )
      (layer2): Sequential(
        (0): Bottleneck(
          (conv1): Conv2d(256, 128, kernel_size=(1, 1), stride=(1, 1), bias=False)
          (bn1): BatchNorm2d(128, eps=1e-05, momentum=0.1, affine=True, track_running_stats=True)
          (conv2): Conv2d(128, 128, kernel_size=(3, 3), stride=(2, 2), padding=(1, 1), bias=False)
          (bn2): BatchNorm2d(128, eps=1e-05, momentum=0.1, affine=True, track_running_stats=True)
          (conv3): Conv2d(128, 512, kernel_size=(1, 1), stride=(1, 1), bias=False)
          (bn3): BatchNorm2d(512, eps=1e-05, momentum=0.1, affine=True, track_running_stats=True)
          (downsample): Sequential(
            (0): Conv2d(256, 512, kernel_size=(1, 1), stride=(2, 2), bias=False)
            (1): BatchNorm2d(512, eps=1e-05, momentum=0.1, affine=True, track_running_stats=True)
          )
        )
        (1): Bottleneck(
          (conv1): Conv2d(512, 128, kernel_size=(1, 1), stride=(1, 1), bias=False)
          (bn1): BatchNorm2d(128, eps=1e-05, momentum=0.1, affine=True, track_running_stats=True)
          (conv2): Conv2d(128, 128, kernel_size=(3, 3), stride=(1, 1), padding=(1, 1), bias=False)
          (bn2): BatchNorm2d(128, eps=1e-05, momentum=0.1, affine=True, track_running_stats=True)
          (conv3): Conv2d(128, 512, kernel_size=(1, 1), stride=(1, 1), bias=False)
          (bn3): BatchNorm2d(512, eps=1e-05, momentum=0.1, affine=True, track_running_stats=True)
        )
        (2): Bottleneck(
          (conv1): Conv2d(512, 128, kernel_size=(1, 1), stride=(1, 1), bias=False)
          (bn1): BatchNorm2d(128, eps=1e-05, momentum=0.1, affine=True, track_running_stats=True)
          (conv2): Conv2d(128, 128, kernel_size=(3, 3), stride=(1, 1), padding=(1, 1), bias=False)
          (bn2): BatchNorm2d(128, eps=1e-05, momentum=0.1, affine=True, track_running_stats=True)
          (conv3): Conv2d(128, 512, kernel_size=(1, 1), stride=(1, 1), bias=False)
          (bn3): BatchNorm2d(512, eps=1e-05, momentum=0.1, affine=True, track_running_stats=True)
        )
        (3): Bottleneck(
          (conv1): Conv2d(512, 128, kernel_size=(1, 1), stride=(1, 1), bias=False)
          (bn1): BatchNorm2d(128, eps=1e-05, momentum=0.1, affine=True, track_running_stats=True)
          (conv2): Conv2d(128, 128, kernel_size=(3, 3), stride=(1, 1), padding=(1, 1), bias=False)
          (bn2): BatchNorm2d(128, eps=1e-05, momentum=0.1, affine=True, track_running_stats=True)
          (conv3): Conv2d(128, 512, kernel_size=(1, 1), stride=(1, 1), bias=False)
          (bn3): BatchNorm2d(512, eps=1e-05, momentum=0.1, affine=True, track_running_stats=True)
        )
      )
      (layer3): Sequential(
        (0): Bottleneck(
          (conv1): Conv2d(512, 256, kernel_size=(1, 1), stride=(1, 1), bias=False)
          (bn1): BatchNorm2d(256, eps=1e-05, momentum=0.1, affine=True, track_running_stats=True)
          (conv2): Conv2d(256, 256, kernel_size=(3, 3), stride=(2, 2), padding=(1, 1), bias=False)
          (bn2): BatchNorm2d(256, eps=1e-05, momentum=0.1, affine=True, track_running_stats=True)
          (conv3): Conv2d(256, 1024, kernel_size=(1, 1), stride=(1, 1), bias=False)
          (bn3): BatchNorm2d(1024, eps=1e-05, momentum=0.1, affine=True, track_running_stats=True)
          (downsample): Sequential(
            (0): Conv2d(512, 1024, kernel_size=(1, 1), stride=(2, 2), bias=False)
            (1): BatchNorm2d(1024, eps=1e-05, momentum=0.1, affine=True, track_running_stats=True)
          )
        )
        (1): Bottleneck(
          (conv1): Conv2d(1024, 256, kernel_size=(1, 1), stride=(1, 1), bias=False)
          (bn1): BatchNorm2d(256, eps=1e-05, momentum=0.1, affine=True, track_running_stats=True)
          (conv2): Conv2d(256, 256, kernel_size=(3, 3), stride=(1, 1), padding=(1, 1), bias=False)
          (bn2): BatchNorm2d(256, eps=1e-05, momentum=0.1, affine=True, track_running_stats=True)
          (conv3): Conv2d(256, 1024, kernel_size=(1, 1), stride=(1, 1), bias=False)
          (bn3): BatchNorm2d(1024, eps=1e-05, momentum=0.1, affine=True, track_running_stats=True)
        )
        (2): Bottleneck(
          (conv1): Conv2d(1024, 256, kernel_size=(1, 1), stride=(1, 1), bias=False)
          (bn1): BatchNorm2d(256, eps=1e-05, momentum=0.1, affine=True, track_running_stats=True)
          (conv2): Conv2d(256, 256, kernel_size=(3, 3), stride=(1, 1), padding=(1, 1), bias=False)
          (bn2): BatchNorm2d(256, eps=1e-05, momentum=0.1, affine=True, track_running_stats=True)
          (conv3): Conv2d(256, 1024, kernel_size=(1, 1), stride=(1, 1), bias=False)
          (bn3): BatchNorm2d(1024, eps=1e-05, momentum=0.1, affine=True, track_running_stats=True)
        )
        (3): Bottleneck(
          (conv1): Conv2d(1024, 256, kernel_size=(1, 1), stride=(1, 1), bias=False)
          (bn1): BatchNorm2d(256, eps=1e-05, momentum=0.1, affine=True, track_running_stats=True)
          (conv2): Conv2d(256, 256, kernel_size=(3, 3), stride=(1, 1), padding=(1, 1), bias=False)
          (bn2): BatchNorm2d(256, eps=1e-05, momentum=0.1, affine=True, track_running_stats=True)
          (conv3): Conv2d(256, 1024, kernel_size=(1, 1), stride=(1, 1), bias=False)
          (bn3): BatchNorm2d(1024, eps=1e-05, momentum=0.1, affine=True, track_running_stats=True)
        )
        (4): Bottleneck(
          (conv1): Conv2d(1024, 256, kernel_size=(1, 1), stride=(1, 1), bias=False)
          (bn1): BatchNorm2d(256, eps=1e-05, momentum=0.1, affine=True, track_running_stats=True)
          (conv2): Conv2d(256, 256, kernel_size=(3, 3), stride=(1, 1), padding=(1, 1), bias=False)
          (bn2): BatchNorm2d(256, eps=1e-05, momentum=0.1, affine=True, track_running_stats=True)
          (conv3): Conv2d(256, 1024, kernel_size=(1, 1), stride=(1, 1), bias=False)
          (bn3): BatchNorm2d(1024, eps=1e-05, momentum=0.1, affine=True, track_running_stats=True)
        )
        (5): Bottleneck(
          (conv1): Conv2d(1024, 256, kernel_size=(1, 1), stride=(1, 1), bias=False)
          (bn1): BatchNorm2d(256, eps=1e-05, momentum=0.1, affine=True, track_running_stats=True)
          (conv2): Conv2d(256, 256, kernel_size=(3, 3), stride=(1, 1), padding=(1, 1), bias=False)
          (bn2): BatchNorm2d(256, eps=1e-05, momentum=0.1, affine=True, track_running_stats=True)
          (conv3): Conv2d(256, 1024, kernel_size=(1, 1), stride=(1, 1), bias=False)
          (bn3): BatchNorm2d(1024, eps=1e-05, momentum=0.1, affine=True, track_running_stats=True)
        )
      )
      (layer4): Sequential(
        (0): Bottleneck(
          (conv1): Conv2d(1024, 512, kernel_size=(1, 1), stride=(1, 1), bias=False)
          (bn1): BatchNorm2d(512, eps=1e-05, momentum=0.1, affine=True, track_running_stats=True)
          (conv2): Conv2d(512, 512, kernel_size=(3, 3), stride=(2, 2), padding=(1, 1), bias=False)
          (bn2): BatchNorm2d(512, eps=1e-05, momentum=0.1, affine=True, track_running_stats=True)
          (conv3): Conv2d(512, 2048, kernel_size=(1, 1), stride=(1, 1), bias=False)
          (bn3): BatchNorm2d(2048, eps=1e-05, momentum=0.1, affine=True, track_running_stats=True)
          (downsample): Sequential(
            (0): Conv2d(1024, 2048, kernel_size=(1, 1), stride=(2, 2), bias=False)
            (1): BatchNorm2d(2048, eps=1e-05, momentum=0.1, affine=True, track_running_stats=True)
          )
        )
        (1): Bottleneck(
          (conv1): Conv2d(2048, 512, kernel_size=(1, 1), stride=(1, 1), bias=False)
          (bn1): BatchNorm2d(512, eps=1e-05, momentum=0.1, affine=True, track_running_stats=True)
          (conv2): Conv2d(512, 512, kernel_size=(3, 3), stride=(1, 1), padding=(1, 1), bias=False)
          (bn2): BatchNorm2d(512, eps=1e-05, momentum=0.1, affine=True, track_running_stats=True)
          (conv3): Conv2d(512, 2048, kernel_size=(1, 1), stride=(1, 1), bias=False)
          (bn3): BatchNorm2d(2048, eps=1e-05, momentum=0.1, affine=True, track_running_stats=True)
        )
        (2): Bottleneck(
          (conv1): Conv2d(2048, 512, kernel_size=(1, 1), stride=(1, 1), bias=False)
          (bn1): BatchNorm2d(512, eps=1e-05, momentum=0.1, affine=True, track_running_stats=True)
          (conv2): Conv2d(512, 512, kernel_size=(3, 3), stride=(1, 1), padding=(1, 1), bias=False)
          (bn2): BatchNorm2d(512, eps=1e-05, momentum=0.1, affine=True, track_running_stats=True)
          (conv3): Conv2d(512, 2048, kernel_size=(1, 1), stride=(1, 1), bias=False)
          (bn3): BatchNorm2d(2048, eps=1e-05, momentum=0.1, affine=True, track_running_stats=True)
        )
      )
    )
    (avg_pool): AdaptiveAvgPool2d(output_size=1)
    (fc_layer): Linear(
      (linear): Linear(in_features=2048, out_features=34, bias=True)
    )
  )
  (denoise_fn): DenoiseTransformer(
    (to_time_embeds): Sequential(
      (0): PositionalEncoding()
      (1): Linear(in_features=2048, out_features=4096, bias=True)
      (2): Swish()
      (3): Linear(in_features=4096, out_features=2048, bias=True)
      (4): Rearrange('b c (h w) -> b c h w', h=1)
      (5): Rearrange('b c h w -> b (c h) w')
    )
    (to_image_embeds): Sequential(
      (0): Linear(in_features=2048, out_features=8192, bias=True)
      (1): Rearrange('b (n d) -> b n d', n=4)
    )
    (to_pose_embeds): Sequential(
      (0): PositionalEncoding()
      (1): Linear(in_features=2048, out_features=4096, bias=True)
      (2): Swish()
      (3): Linear(in_features=4096, out_features=2048, bias=True)
      (4): Rearrange('b c (h w) -> b c h w', h=1)
      (5): Rearrange('b c h w -> b (c h) w')
    )
    (causal_transformer): CausalTransformer(
      (init_norm): Identity()
      (rel_pos_bias): RelPosBias(
        (relative_attention_bias): Embedding(32, 12)
      )
      (layers): ModuleList(
        (0): ModuleList(
          (0): Attention(
            (norm): LayerNorm()
            (dropout): Dropout(p=0.05, inplace=False)
            (to_q): Linear(in_features=2048, out_features=768, bias=False)
            (to_kv): Linear(in_features=2048, out_features=128, bias=False)
            (rotary_emb): RotaryEmbedding()
            (to_out): Sequential(
              (0): Linear(in_features=768, out_features=2048, bias=False)
              (1): LayerNorm()
            )
          )
          (1): Sequential(
            (0): LayerNorm()
            (1): Linear(in_features=2048, out_features=16384, bias=False)
            (2): SwiGLU()
            (3): LayerNorm()
            (4): Dropout(p=0.05, inplace=False)
            (5): Linear(in_features=8192, out_features=2048, bias=False)
          )
        )
        (1): ModuleList(
          (0): Attention(
            (norm): LayerNorm()
            (dropout): Dropout(p=0.05, inplace=False)
            (to_q): Linear(in_features=2048, out_features=768, bias=False)
            (to_kv): Linear(in_features=2048, out_features=128, bias=False)
            (rotary_emb): RotaryEmbedding()
            (to_out): Sequential(
              (0): Linear(in_features=768, out_features=2048, bias=False)
              (1): LayerNorm()
            )
          )
          (1): Sequential(
            (0): LayerNorm()
            (1): Linear(in_features=2048, out_features=16384, bias=False)
            (2): SwiGLU()
            (3): LayerNorm()
            (4): Dropout(p=0.05, inplace=False)
            (5): Linear(in_features=8192, out_features=2048, bias=False)
          )
        )
        (2): ModuleList(
          (0): Attention(
            (norm): LayerNorm()
            (dropout): Dropout(p=0.05, inplace=False)
            (to_q): Linear(in_features=2048, out_features=768, bias=False)
            (to_kv): Linear(in_features=2048, out_features=128, bias=False)
            (rotary_emb): RotaryEmbedding()
            (to_out): Sequential(
              (0): Linear(in_features=768, out_features=2048, bias=False)
              (1): LayerNorm()
            )
          )
          (1): Sequential(
            (0): LayerNorm()
            (1): Linear(in_features=2048, out_features=16384, bias=False)
            (2): SwiGLU()
            (3): LayerNorm()
            (4): Dropout(p=0.05, inplace=False)
            (5): Linear(in_features=8192, out_features=2048, bias=False)
          )
        )
        (3): ModuleList(
          (0): Attention(
            (norm): LayerNorm()
            (dropout): Dropout(p=0.05, inplace=False)
            (to_q): Linear(in_features=2048, out_features=768, bias=False)
            (to_kv): Linear(in_features=2048, out_features=128, bias=False)
            (rotary_emb): RotaryEmbedding()
            (to_out): Sequential(
              (0): Linear(in_features=768, out_features=2048, bias=False)
              (1): LayerNorm()
            )
          )
          (1): Sequential(
            (0): LayerNorm()
            (1): Linear(in_features=2048, out_features=16384, bias=False)
            (2): SwiGLU()
            (3): LayerNorm()
            (4): Dropout(p=0.05, inplace=False)
            (5): Linear(in_features=8192, out_features=2048, bias=False)
          )
        )
        (4): ModuleList(
          (0): Attention(
            (norm): LayerNorm()
            (dropout): Dropout(p=0.05, inplace=False)
            (to_q): Linear(in_features=2048, out_features=768, bias=False)
            (to_kv): Linear(in_features=2048, out_features=128, bias=False)
            (rotary_emb): RotaryEmbedding()
            (to_out): Sequential(
              (0): Linear(in_features=768, out_features=2048, bias=False)
              (1): LayerNorm()
            )
          )
          (1): Sequential(
            (0): LayerNorm()
            (1): Linear(in_features=2048, out_features=16384, bias=False)
            (2): SwiGLU()
            (3): LayerNorm()
            (4): Dropout(p=0.05, inplace=False)
            (5): Linear(in_features=8192, out_features=2048, bias=False)
          )
        )
        (5): ModuleList(
          (0): Attention(
            (norm): LayerNorm()
            (dropout): Dropout(p=0.05, inplace=False)
            (to_q): Linear(in_features=2048, out_features=768, bias=False)
            (to_kv): Linear(in_features=2048, out_features=128, bias=False)
            (rotary_emb): RotaryEmbedding()
            (to_out): Sequential(
              (0): Linear(in_features=768, out_features=2048, bias=False)
              (1): LayerNorm()
            )
          )
          (1): Sequential(
            (0): LayerNorm()
            (1): Linear(in_features=2048, out_features=16384, bias=False)
            (2): SwiGLU()
            (3): LayerNorm()
            (4): Dropout(p=0.05, inplace=False)
            (5): Linear(in_features=8192, out_features=2048, bias=False)
          )
        )
        (6): ModuleList(
          (0): Attention(
            (norm): LayerNorm()
            (dropout): Dropout(p=0.05, inplace=False)
            (to_q): Linear(in_features=2048, out_features=768, bias=False)
            (to_kv): Linear(in_features=2048, out_features=128, bias=False)
            (rotary_emb): RotaryEmbedding()
            (to_out): Sequential(
              (0): Linear(in_features=768, out_features=2048, bias=False)
              (1): LayerNorm()
            )
          )
          (1): Sequential(
            (0): LayerNorm()
            (1): Linear(in_features=2048, out_features=16384, bias=False)
            (2): SwiGLU()
            (3): LayerNorm()
            (4): Dropout(p=0.05, inplace=False)
            (5): Linear(in_features=8192, out_features=2048, bias=False)
          )
        )
        (7): ModuleList(
          (0): Attention(
            (norm): LayerNorm()
            (dropout): Dropout(p=0.05, inplace=False)
            (to_q): Linear(in_features=2048, out_features=768, bias=False)
            (to_kv): Linear(in_features=2048, out_features=128, bias=False)
            (rotary_emb): RotaryEmbedding()
            (to_out): Sequential(
              (0): Linear(in_features=768, out_features=2048, bias=False)
              (1): LayerNorm()
            )
          )
          (1): Sequential(
            (0): LayerNorm()
            (1): Linear(in_features=2048, out_features=16384, bias=False)
            (2): SwiGLU()
            (3): LayerNorm()
            (4): Dropout(p=0.05, inplace=False)
            (5): Linear(in_features=8192, out_features=2048, bias=False)
          )
        )
        (8): ModuleList(
          (0): Attention(
            (norm): LayerNorm()
            (dropout): Dropout(p=0.05, inplace=False)
            (to_q): Linear(in_features=2048, out_features=768, bias=False)
            (to_kv): Linear(in_features=2048, out_features=128, bias=False)
            (rotary_emb): RotaryEmbedding()
            (to_out): Sequential(
              (0): Linear(in_features=768, out_features=2048, bias=False)
              (1): LayerNorm()
            )
          )
          (1): Sequential(
            (0): LayerNorm()
            (1): Linear(in_features=2048, out_features=16384, bias=False)
            (2): SwiGLU()
            (3): LayerNorm()
            (4): Dropout(p=0.05, inplace=False)
            (5): Linear(in_features=8192, out_features=2048, bias=False)
          )
        )
        (9): ModuleList(
          (0): Attention(
            (norm): LayerNorm()
            (dropout): Dropout(p=0.05, inplace=False)
            (to_q): Linear(in_features=2048, out_features=768, bias=False)
            (to_kv): Linear(in_features=2048, out_features=128, bias=False)
            (rotary_emb): RotaryEmbedding()
            (to_out): Sequential(
              (0): Linear(in_features=768, out_features=2048, bias=False)
              (1): LayerNorm()
            )
          )
          (1): Sequential(
            (0): LayerNorm()
            (1): Linear(in_features=2048, out_features=16384, bias=False)
            (2): SwiGLU()
            (3): LayerNorm()
            (4): Dropout(p=0.05, inplace=False)
            (5): Linear(in_features=8192, out_features=2048, bias=False)
          )
        )
        (10): ModuleList(
          (0): Attention(
            (norm): LayerNorm()
            (dropout): Dropout(p=0.05, inplace=False)
            (to_q): Linear(in_features=2048, out_features=768, bias=False)
            (to_kv): Linear(in_features=2048, out_features=128, bias=False)
            (rotary_emb): RotaryEmbedding()
            (to_out): Sequential(
              (0): Linear(in_features=768, out_features=2048, bias=False)
              (1): LayerNorm()
            )
          )
          (1): Sequential(
            (0): LayerNorm()
            (1): Linear(in_features=2048, out_features=16384, bias=False)
            (2): SwiGLU()
            (3): LayerNorm()
            (4): Dropout(p=0.05, inplace=False)
            (5): Linear(in_features=8192, out_features=2048, bias=False)
          )
        )
        (11): ModuleList(
          (0): Attention(
            (norm): LayerNorm()
            (dropout): Dropout(p=0.05, inplace=False)
            (to_q): Linear(in_features=2048, out_features=768, bias=False)
            (to_kv): Linear(in_features=2048, out_features=128, bias=False)
            (rotary_emb): RotaryEmbedding()
            (to_out): Sequential(
              (0): Linear(in_features=768, out_features=2048, bias=False)
              (1): LayerNorm()
            )
          )
          (1): Sequential(
            (0): LayerNorm()
            (1): Linear(in_features=2048, out_features=16384, bias=False)
            (2): SwiGLU()
            (3): LayerNorm()
            (4): Dropout(p=0.05, inplace=False)
            (5): Linear(in_features=8192, out_features=2048, bias=False)
          )
        )
      )
      (norm): LayerNorm()
      (project_out): Linear(in_features=2048, out_features=34, bias=False)
    )
  )
  (loss_fn): SanityCheck(
    (loss_fn): L1Loss()
  )
)
23-07-11 13:53:27.292 - INFO: Model [DDPM] is created.
23-07-11 13:53:27.292 - INFO: Initial Model Finished
23-07-11 13:53:27.292 - INFO: Resuming training from epoch: 19, iter: 90000.
23-07-11 13:53:29.246 - INFO: <epoch: 19, iter:  90,000>
 reg_loss: 1.1247e+02 loss: 1.1247e+02 
23-07-11 14:02:35.745 - INFO: Evaluation at <epoch: 19, iter:  90,000
…
